wake_word_stop_lite.tflite (tflite, 70428 bytes, 9 tensors)

sequential/conv2d/BiasAdd/ReadVariableOp f4 [32]
000000 d7 c8 64 3e 64 73 09 3d b3 de 08 3e d5 0f b3 bd
       0.2234224 0.03355731 0.13366203 -0.08743254
000010 50 0d e0 3d f4 00 8c ba 15 bd 98 3c e3 6c 7a bc
       0.10940039 -0.0010681436 0.018644849 -0.01528475
000020 42 26 00 3e 56 99 c8 bc 5e bb f9 3d eb b8 02 be
       0.12514594 -0.024487179 0.121939406 -0.12765853
000030 92 e2 15 be 3b db f8 bd 3b 1a 57 bd e5 43 53 bd
       -0.14637211 -0.1215119 -0.05251525 -0.05157842
000040 8a 5c 1e 3e bb 48 d8 bb 7b 00 4b bc e5 09 07 3c
       0.15464988 -0.006600467 -0.012390251 0.008242105
000050 57 e7 83 bd 71 39 44 bb 5e d4 5d ba 72 9b 9c bd
       -0.06440609 -0.0029941464 -0.0008462126 -0.07646836
000060 1a 24 6a 3e 9b 04 16 be 9a fa 14 3d b0 9e f6 bc
       0.22865334 -0.14650194 0.036371805 -0.030104965
000070 3b 3b 25 3e 5f 0e 08 bd c4 94 21 bd 6f fe f0 3c
       0.16135876 -0.03321683 -0.039448515 0.029418198

sequential/conv2d_1/BiasAdd/ReadVariableOp f4 [32]
000000 d6 ec 2c 3e 17 33 b5 3c 5b ab 03 be 09 aa 8c bd
       0.1688722 0.022119088 -0.12858336 -0.06868369
000010 3e 8a 03 be 42 d1 45 3d 24 8e 5c 3e 97 87 43 3d
       -0.12845704 0.048295267 0.21538597 0.04773673
000020 ef 87 9b be e6 17 d3 3d 7b 8d d0 bd 7d a9 d3 3c
       -0.30377147 0.10307293 -0.10183235 0.025837654
000030 1b 03 a7 3d e2 82 65 3b bc 3c 5e bd 77 76 02 bd
       0.08154889 0.003502064 -0.05425714 -0.031851258
000040 43 7a 29 bd cb d9 73 3e 55 7c 6c 3d 6c 16 95 3d
       -0.041376363 0.2381355 0.05773576 0.07279667
000050 17 14 47 bd 72 72 a4 bb 7d 9d 07 be 88 36 26 be
       -0.048603144 -0.0050185258 -0.13243671 -0.1623174
000060 91 a2 4e 3d aa 88 a3 3d 69 8b 90 bc 9b 9f 15 be
       0.050448004 0.07985051 -0.017644601 -0.14611666
000070 46 99 30 be 62 f8 03 be 64 69 42 be 1a d5 39 3c
       -0.17245969 -0.1288772 -0.18985516 0.011342311

sequential/conv2d_2/BiasAdd/ReadVariableOp f4 [64]
000000 d8 c4 84 3c 4d 37 84 be bc 08 3f 3d e1 55 09 3e
       0.016207144 -0.2582344 0.04663919 0.13411666
000010 56 a3 36 bd 5b aa 58 bd fd 68 dd 3c 0d 11 95 bc
       -0.044589363 -0.05289684 0.027027601 -0.018196607
000020 b7 80 82 3d 3b c0 d2 bc ed 2c a7 3c c9 81 89 bd
       0.06372207 -0.025726428 0.020407164 -0.06714208
000030 f9 b6 55 bd 1c 6a cf bb 08 d1 e1 bd 01 ab da bc
       -0.05217645 -0.006329788 -0.11026198 -0.02669287
000040 88 03 2d bc 4f 8a b5 3c 49 cc b2 bd cc f6 9e 3c
       -0.010559924 0.022160677 -0.087303706 0.019404791
000050 68 2a ef 3c c4 18 ea bc 56 bc b9 bd 21 ae 20 3e
       0.029195026 -0.028576262 -0.09069125 0.15691425
000060 ba 2f 0b be c2 5f 30 bc 99 7c cb bd ac 32 f9 3d
       -0.13592425 -0.010765018 -0.099358745 0.12167868
000070 06 5e 8d bd 85 6d 31 bb 0b 98 96 bd d8 cc 0b be
       -0.06902699 -0.0027073335 -0.07353219 -0.1365236
000080 14 ea 23 3e a3 2a 1b bd a1 3e 2b bd 35 5b c5 bd
       0.16007262 -0.03788246 -0.041807774 -0.09636537
000090 a4 06 96 bc cd d7 80 3d 07 80 ac bc f4 05 2a be
       -0.018313713 0.06291161 -0.021057142 -0.16603833
0000a0 03 58 b9 bb 08 11 45 3d 56 e8 ee bc aa 65 89 bd
       -0.005656244 0.048111945 -0.02916352 -0.06708844
0000b0 b9 65 80 bd 10 f3 02 be 2b 32 b7 bc 5c e8 15 3c
       -0.06269402 -0.12788033 -0.02236279 0.009149637
0000c0 fd fa 2f 3d 88 a0 49 bd c8 58 54 be 12 fd a8 bc
       0.04296397 -0.04922536 -0.20736992 -0.020628486
0000d0 4c 89 b4 bd 55 90 f3 bc b6 14 4f bb 93 a0 ba bc
       -0.0881525 -0.029731909 -0.0031598038 -0.022781646
0000e0 41 65 54 3d cd 0f 22 bd 5c b8 5e bc 4b d9 a8 3d
       0.051854376 -0.03956585 -0.013593759 0.0824457
0000f0 6a 00 a8 bc 73 e3 e2 bd b1 25 24 be e7 a3 9e 3c
       -0.02050801 -0.11078539 -0.16030003 0.019365264

sequential/dense/BiasAdd/ReadVariableOp f4 [64]
000000 78 ea 7e 3d fe ba 5b 3d 8e e2 75 3d 89 e9 9e 3d
       0.062235326 0.053645127 0.060030513 0.07759387
000010 84 d5 9d 3d 46 0e 09 be 0e a6 35 bd 44 46 65 3c
       0.077067405 -0.13384351 -0.044347815 0.013993803
000020 97 11 7f bd f3 8c 30 3d 3d 64 ad bd 90 7e 5c bd
       -0.062272634 0.04310317 -0.084663846 -0.053831637
000030 73 21 9b 3d 00 04 d9 3c 38 ee ea bd 1e b1 63 3d
       0.07574739 0.026491165 -0.11471218 0.055588834
000040 e2 00 bd bd 03 1a 3c be e3 a9 92 bc 80 b6 1c 3d
       -0.09228684 -0.18369298 -0.017903274 0.038259983
000050 9f b0 73 3b a4 cd b3 bd c8 0a dd bc fc f9 80 bd
       0.0037184132 -0.08779457 -0.02698268 -0.06297681
000060 e4 77 20 ba de b0 9a 3d fc b5 fe bd 63 67 6e 3d
       -0.0006121381 0.07553266 -0.124370545 0.058204066
000070 b3 9b a2 b9 c2 a5 de 3d 40 57 c2 bd 0f 85 35 bc
       -0.00031015053 0.108714595 -0.09489298 -0.011079087
000080 a8 65 fd 3c 37 a3 a6 bd 69 70 8a 3d 91 d3 bb bb
       0.030932263 -0.081365995 0.06759722 -0.005732008
000090 1c 18 e1 3c f5 4f 2e bd 86 c0 cf bd 0c 4a 6d bd
       0.027477317 -0.04255672 -0.10144143 -0.057931945
0000a0 a2 34 12 bd f9 1f 9a 3c f9 c5 26 3d 1c 4d f3 bd
       -0.035694726 0.018814074 0.040716145 -0.11879942
0000b0 9a 56 9e bc ef 02 da 3c f4 35 86 3d 1e 55 e1 bc
       -0.019328404 0.026612727 0.065532595 -0.027506407
0000c0 ce ab 11 be d0 55 07 3d 4a ba 7a ba 71 18 85 bd
       -0.14225695 0.03304082 -0.00095645024 -0.064988025
0000d0 64 f3 00 be 8f b2 0b bd be 56 66 3c 96 66 90 bd
       -0.12592846 -0.034105834 0.014058767 -0.07050817
0000e0 1f 94 e3 bc 4a 7c 00 be 14 7b 22 be 43 90 ea 3c
       -0.02778059 -0.12547413 -0.15867263 0.028633242
0000f0 fd cd e1 3b 3a d6 a5 bd d7 3c 8b bc 9d 81 b8 bd
       0.006891011 -0.08097501 -0.016996784 -0.09009097

sequential/dense/MatMul f4 [64, 64]
000000 9d e6 7d 3e 0c a9 7a 3e 72 c9 1f be b5 bf a5 be
       0.24795003 0.24478549 -0.15604189 -0.32372823
000010 96 19 ee 3d 7a e0 24 3d b7 62 d9 bd d1 1d 0e 3e
       0.11625974 0.04025314 -0.106145315 0.13878562
000020 7c 3f 12 be b9 a3 48 be 19 7f 31 be bd cd 08 3e
       -0.1428203 -0.19593705 -0.1733364 0.13359733
000030 e4 e2 59 3e 6b ef 68 bd 6b 3e b7 3e de c0 48 be
       0.21277958 -0.05686895 0.3578981 -0.19604823
000040 cd 66 29 be 19 6c 98 bd 42 5a d8 3d 2b f8 6b be
       -0.16543122 -0.07442493 0.1056409 -0.23043887
000050 14 18 5e 3e 6c 49 a3 3e 16 a1 21 3c 9a 56 3f bd
       0.21688873 0.31891954 0.009865066 -0.04671345
000060 15 be 91 3e 8d b3 80 3e 39 b1 c3 3e 67 a9 7c be
       0.28465334 0.25136986 0.38221148 -0.24673997
000070 ee 82 83 3e 48 11 c5 3d 5d e0 a9 3d de ee 02 3e
       0.2568583 0.09622437 0.08294747 0.12786433
000080 16 41 8b be ed 41 20 3e bf 35 90 3e a4 54 c4 bd
       -0.27198094 0.15650149 0.28166005 -0.095864564
000090 90 b1 05 bc 8c 2a be bd 75 11 ee bd 47 7f c4 3d
       -0.00816001 -0.09285459 -0.116244234 0.09594589
0000a0 41 13 74 bd 95 cc 2d be df 59 23 3e 9f 68 54 3e
       -0.059588674 -0.16972573 0.15952252 0.20743035
0000b0 6c 5c 9e 3d ea 90 c9 3d cc a7 50 be 6c 9f 8a bd
       0.07732472 0.09842093 -0.2037651 -0.067686886
0000c0 80 b1 4c be df 03 7e 3e 26 76 55 3e bc 3c 83 bd
       -0.19989586 0.24806164 0.20845851 -0.064080685
0000d0 80 49 42 3e 90 b7 e5 bd 94 86 95 3e 39 7b 95 3e
       0.1897335 -0.112166524 0.29204237 0.29195574
0000e0 99 be 82 be 81 2b 90 3d 34 40 72 3e 87 1f 9b bd
       -0.2553604 0.07039548 0.23657304 -0.07574373
0000f0 f6 14 e9 bd 43 16 4e 3e ab aa 18 bc 1e 8e cf 3e
       -0.11380951 0.2012568 -0.009318034 0.40538114
000100 55 cb 5f be ec b2 5c bd 23 fe 2d 3e 7d 74 90 be
       -0.21854909 -0.05388157 0.16991477 -0.28213874
000110 7d 74 d5 bd dd c6 fe bd bc cc 66 be 75 a9 b2 bd
       -0.10422609 -0.12440274 -0.22539037 -0.087237276
000120 5c f8 4b be c1 79 9e 3d 97 71 e5 bd b7 94 76 3d
       -0.1991896 0.077380665 -0.11203306 0.06020042
000130 3b 0f 5d 3e a4 47 0e 3e 68 59 88 3c 8c e4 f8 bd
       0.21587841 0.13894516 0.016644195 -0.12152967
000140 53 ee 56 be 7c 60 f4 bd d0 65 3b 3d 02 7a 5b 3d
       -0.20989351 -0.119324654 0.045751393 0.053583153
000150 fb 08 ff 3d 1a 50 c3 3d bd 91 a0 be 8e 5d 3f be
       0.12452885 0.095367625 -0.3136119 -0.18688032
000160 ce 0e 00 bd 54 94 0c bd 2d 06 e7 3d fa c4 37 bc
       -0.03126412 -0.034321144 0.11280475 -0.0112163965
000170 46 18 68 3e 40 f2 0e bd 97 04 83 3e bc 6a 2d be
       0.2266551 -0.034898996 0.2558944 -0.16935247
000180 b4 01 78 bc ce 47 92 bd ec 89 ff 3d 67 fe fa 3d
       -0.015137125 -0.07142602 0.124774784 0.12255555
000190 85 3a 32 be d4 4b 7b 3d ab f0 f4 3d 61 43 84 3d
       -0.17405136 0.061351612 0.11959966 0.06458164
0001a0 70 8c ee bd 5c 77 bc bd 7c 9f af 3d 71 8a 8f 3e
       -0.1164788 -0.092024535 0.08575341 0.2803531
0001b0 b5 d4 34 3d 39 ce 57 3e 7c e2 a9 bd 71 b4 1a 3e
       0.044148166 0.21074761 -0.082951516 0.15107895
0001c0 ce 89 f4 bd 1e d2 31 3d 1a 36 74 bd 40 a3 20 3e
       -0.11940347 0.043413274 -0.059621908 0.15687275
0001d0 19 31 db bd 76 8d 02 3e f9 56 a5 bd 22 e4 55 3e
       -0.10702724 0.12749276 -0.08073229 0.20887807
0001e0 05 a9 c2 bd 89 10 0d 3e b9 63 15 be cd ac c0 3d
       -0.09504894 0.13775839 -0.14588822 0.09407959
0001f0 06 c1 44 3d 61 6d c0 bd 24 35 5f bd 0d bf 8d 3e
       0.048035644 -0.09395862 -0.05449404 0.27684823
000200 d6 1a 00 3e ae 96 cc 3d 1a e8 4d be 0e 32 0d be
       0.12510237 0.09989677 -0.20108071 -0.13788626
000210 99 73 4d 3e 6f 3a 77 3d 8b 32 4d be e0 97 d9 3b
       0.20063628 0.06035846 -0.20038812 0.0066404194
000220 38 f9 8a 3d 5a 68 22 be c7 cf 0c be 7c d9 c8 3d
       0.06785816 -0.1586012 -0.13751136 0.09807107
000230 61 f6 a4 3e 6e 3b 23 be ef b2 33 3d 5f 79 e2 bd
       0.32219222 -0.1594064 0.043871816 -0.11058306
000240 55 43 c8 bd 90 48 b6 bd d4 30 a0 3d a5 43 3d be
       -0.097784676 -0.08900559 0.07821813 -0.18482836
000250 e0 da 61 3c 4b aa 87 3e 9a 5e 04 3e 4b ae fb bd
       0.013785094 0.2649711 0.12926713 -0.12289103
000260 c7 5a 9c 3e b1 66 02 bc 91 4b 99 3e ee 3c 31 be
       0.30538008 -0.007959054 0.29940465 -0.17308399
000270 dc ee 91 3d 17 35 9c 3e 6a e4 8c 3e 14 10 c5 3a
       0.07125637 0.30509254 0.27518016 0.0015034699
000280 85 30 9d be 41 49 1d 3e 0e 70 90 3e 6c 47 e5 3d
       -0.3070108 0.15359975 0.2821049 0.11195263
000290 4f 61 02 3e 08 80 d8 bc 6d f1 2b be 24 a0 f3 3d
       0.12732433 -0.026428238 -0.16791315 0.11895779
0002a0 dc cc f9 3d 4a 0f 37 be bf 1c 95 3e b1 ab 76 bd
       0.12197277 -0.17876926 0.29123494 -0.06022233
0002b0 af 33 08 bc 1f 02 7b bc 8e fa 1b be 1f 51 26 bc
       -0.008313104 -0.01532033 -0.15232298 -0.010151177
0002c0 d6 7a 5b be 17 d7 a5 3e 1f 6b 80 3e 5f 3e 80 be
       -0.21433577 0.32390663 0.25081727 -0.25047585
0002d0 ac bb ae 3e 95 90 53 be d8 90 5a 3e 68 2a 54 3e
       0.34127557 -0.20660622 0.21344316 0.20719302
0002e0 1a 2f 4e be 01 4f c0 bd df 8f 3e 3e de a6 b7 bd
       -0.20135155 -0.09390069 0.1860957 -0.08967374
0002f0 2f 8a 1b bc 64 6b bf 3d 5e 20 18 3e a6 65 8e 3e
       -0.009493395 0.09346655 0.14856097 0.27811927
000300 0c 43 d7 3d ae f1 47 3e 5f 52 f2 bd 84 98 a7 be
       0.10510835 0.19525787 -0.11832117 -0.32733548
000310 63 96 97 3e b7 ba 98 bd bf bf 01 be 18 16 5f bd
       0.29606923 -0.07457488 -0.12670802 -0.05446443
000320 e3 ce f8 bd 7b 01 ae bd ac a9 a7 bd b0 14 38 3c
       -0.121488355 -0.08496376 -0.08186659 0.011235401
000330 aa 8e d3 3d 0b 11 26 be ab 9e b2 3e bc 59 2f bd
       0.103299454 -0.16217439 0.3488668 -0.042810187
000340 57 9b 2a be 7a 8f b3 be d2 6a 45 bd 9d 7a a7 be
       -0.1666082 -0.350704 -0.048197575 -0.32710734
000350 31 41 bf 3e 9d c5 94 3e 83 0b be bd 31 8c cd bd
       0.37354425 0.29057017 -0.092795394 -0.10036505
000360 25 f9 d2 3d de da 53 3e 62 86 b2 3e 8d 8b ed bd
       0.10301427 0.2068896 0.3486815 -0.11598883
000370 31 95 56 3e f8 5c 35 3e 1e c5 44 3e 6b 60 2d 3e
       0.2095535 0.17711246 0.19215819 0.16931312
000380 76 e5 3c be a8 f5 27 3e f9 83 e0 3e 81 c5 4c 3e
       -0.18446907 0.16402304 0.43850687 0.19997217
000390 07 f1 04 bd df bb 21 be 2c 80 8a 3d 75 8f 35 3e
       -0.032456424 -0.15794323 0.06762728 0.17730506
0003a0 c9 e2 42 3e 6a 90 7d be 1d 9f d5 3e 95 5e 1b 3e
       0.19031824 -0.24762121 0.41722956 0.15172799
0003b0 33 74 a3 3d 8e 69 a4 3e 34 02 84 bc 9e e3 74 bb
       0.079811476 0.32111782 -0.016114332 -0.0037367116
0003c0 5e 46 41 be 35 98 d5 3e d6 b1 dd 3e 7a 2f 9d bd
       -0.18874499 0.41717687 0.4329974 -0.07675071
0003d0 c4 e2 bf 3e 69 65 58 be c4 ae 50 3e d5 6b 1d 3e
       0.37477696 -0.21132435 0.20379168 0.15373166
0003e0 b0 87 88 be 27 16 83 bd 63 18 95 bd 9c 58 4c be
       -0.2666602 -0.064007096 -0.07280042 -0.19955677
0003f0 ce c6 0d be 66 59 9d bd 1b 8b 7f 3e b8 9d a9 3e
       -0.13845369 -0.07683067 0.24955408 0.33128142

sequential/dense_1/MatMul f4 [1, 64]
000000 a7 55 24 bf d5 8a cf be 87 1e f5 be be 1e 1d bf
       -0.64193195 -0.40535608 -0.47874853 -0.61375034
000010 e9 fd 3c bf d7 42 0c 3f ba 02 f5 3e 91 0c ee be
       -0.73824936 0.5478949 0.47853643 -0.46493962
000020 1a 03 08 3b 18 d1 4a bf 48 46 1b bf 17 fa 16 3f
       0.0020753802 -0.792253 -0.60654116 0.58975357
000030 ba e9 15 bf 57 91 1b bf 09 45 14 3f 95 18 14 bf
       -0.58559763 -0.60768646 0.5791784 -0.5785001
000040 34 18 eb 3e 82 6e 2e 3f 46 03 8e be 91 98 00 bf
       0.45916903 0.6813737 -0.27736872 -0.502328
000050 df 0e 16 bf b3 e0 2b 3f 78 c5 da 3d 62 fc 11 3f
       -0.5861644 0.6713974 0.106821954 0.5702573
000060 8e 0a e2 be a2 75 0a bf a5 d7 0a 3f 9a 26 2b bf
       -0.44148678 -0.54085743 0.542353 -0.66855776
000070 c5 55 0d bf ac 2d cc be 09 f4 03 3e 77 5e 16 bf
       -0.55209 -0.39878595 0.12886061 -0.5873789
000080 83 34 cf be 97 b0 1c 3f eb df 11 bf 95 f4 10 bf
       -0.4046975 0.61206955 -0.56982297 -0.566232
000090 f5 dc 15 bf c1 1c a7 3e 33 61 af 3e 2e 34 69 3d
       -0.5854028 0.32639125 0.34253845 0.056934528
0000a0 00 79 9d 3e 7d 7e c6 be 58 1c f2 3e 93 c0 3d 3f
       0.30756378 -0.38768378 0.4728725 0.7412197
0000b0 0d 0c e4 be 61 fc d7 3e be 19 17 bf 6b 2c 2c 3f
       -0.44540444 0.42184737 -0.59023654 0.67255276
0000c0 c0 2f e7 3e 0f b4 0d bf 9a f0 e6 3e 8c a1 c2 3e
       0.45153618 -0.5535287 0.4510544 0.38013875
0000d0 a2 ed 05 3f 3c 7f fa 3e 20 a0 d0 be 90 ac aa 3e
       0.52315724 0.48925197 -0.40747166 0.3333478
0000e0 fe 3a b7 3e e8 73 36 3f 12 b9 41 3f 94 1e d2 be
       0.35787195 0.7127061 0.7567302 -0.41038954
0000f0 fb a6 04 3f 0e f0 0e 3f bd 0e df be 78 2c 16 3f
       0.5181729 0.55835044 -0.43565932 0.58661604

sequential/conv2d/Conv2D f4 [32, 2, 2, 1]
000000 34 5a 44 3e 53 ba db bc 55 a6 5e be a4 87 2b 3f
       0.19175035 -0.026822245 -0.21743138 0.67003846
000010 05 9a 46 bc 7e ad a1 3e 82 5e 82 be 2c 2d 40 3e
       -0.012121682 0.31577677 -0.2546273 0.18767232
000020 2d 64 6a be 15 c4 c5 3e 5a 85 eb 3e 25 5b df be
       -0.22889777 0.3862616 0.46000177 -0.43624225
000030 4f 95 9e bd b8 48 1f bd c3 db e0 3d 7c 35 d2 bd
       -0.07743322 -0.03888771 0.10979416 -0.102641076
000040 61 e6 7f be d3 1c 57 3e 90 84 ad be 89 c8 b9 3e
       -0.24990226 0.2100709 -0.338902 0.3628581
000050 21 2d 64 3e c8 6d 04 3e 28 ef 9f 3e 0f 93 62 bd
       0.2228284 0.12932503 0.3123715 -0.055316027
000060 72 a9 6e 3e 68 a2 9e be 73 97 e3 3c 6b 5b 1d 3e
       0.23306826 -0.3098328 0.027782178 0.15366904
000070 3a e6 38 bd 2e 2e 7e 3e 50 57 44 be 34 5b 50 bd
       -0.045141436 0.24822304 -0.19173932 -0.050868228
000080 71 43 f4 3d 67 45 b2 3d c2 48 1c be e5 e9 86 3d
       0.11926926 0.08704644 -0.1526213 0.065875806
000090 25 c0 43 3e ee bd 16 be a1 87 66 be e7 5e 3c 3e
       0.19116266 -0.1472089 -0.22512676 0.18395577
0000a0 81 a9 0d be 08 ac 39 3e 32 a1 27 3e c3 39 4b 3e
       -0.13834192 0.18132031 0.16370085 0.19846253
0000b0 e6 00 27 be 44 1a 18 3d 2a 67 5f be be 7d c0 3d
       -0.16308936 0.037134424 -0.21816698 0.093989834
0000c0 06 d1 91 bd 14 de 06 be 60 38 c3 be 9b 6b 20 3e
       -0.07119946 -0.13170654 -0.38128948 0.15666048
0000d0 04 cf 3b 3e d0 04 25 bd 52 d1 a3 be f2 c1 9e 3e
       0.18340689 -0.040287793 -0.31995636 0.31007344
0000e0 e1 82 d2 3e 81 ab 48 3d 03 38 38 3e 10 b4 a7 3d
       0.41115478 0.048991684 0.17990117 0.08188641
0000f0 ee 1c e8 bd 9e 1f 64 3d ef 34 d8 3b 94 71 db be
       -0.11333643 0.055694215 0.006598107 -0.4286009
000100 1b 6e 35 3e 61 5b 22 3e a0 58 6b 3e f7 f4 d3 3b
       0.17717783 0.15855171 0.22983027 0.006468411
000110 7e 69 b7 3e 3a 87 f9 bd ef 56 59 bd a6 30 62 be
       0.35822672 -0.121839955 -0.053061422 -0.2208887
000120 b9 78 34 3e fc 46 07 bd ac 8b 67 3e 3b ea 6b be
       0.17624177 -0.03302668 0.22611874 -0.2303857
000130 c0 33 2d 3e b3 b9 93 bd 60 f9 80 be b3 2f 96 3d
       0.16914272 -0.07213154 -0.25190258 0.07333317
000140 f9 45 6c bd 43 26 be bd 5f aa c2 3e 53 15 a3 be
       -0.05768392 -0.092846416 0.38020608 -0.31852207
000150 09 c3 2b be 8d 27 7d 3e b0 18 da bd 40 f1 43 be
       -0.16773619 0.24722119 -0.1064924 -0.19134998
000160 ce a6 33 bd 2d 09 ab bd 3d de 23 bd cd 61 0a 3e
       -0.04386025 -0.083513595 -0.040006865 0.1351387
000170 23 0d 75 be 71 29 d1 3e c7 95 59 3e 05 14 b2 3c
       -0.23930793 0.4085193 0.21248542 0.021738062
000180 67 31 d9 bc a9 bd 92 3e b4 d3 3b be 1a f3 cc 3e
       -0.026512815 0.28660324 -0.18342477 0.40029222
000190 a9 51 e1 bd a8 c7 a7 bd 19 e6 3b 3d 9b e1 6e be
       -0.110019036 -0.08192378 0.045873735 -0.23328249
0001a0 60 b1 e4 3d f3 60 82 bd 01 d0 1d 3e 4b ed 0f be
       0.11166644 -0.06366148 0.15411378 -0.14055364
0001b0 74 c8 89 be 32 ea 77 3c 58 fa 0c 3d d0 3d 4a 3e
       -0.26910746 0.01513152 0.034418434 0.19750142
0001c0 27 55 1b 3e 4a 6b b0 3c 88 a4 c7 bd 00 03 cd bc
       0.15169202 0.021535534 -0.09748179 -0.025025845
0001d0 67 05 7e 3e e0 e7 64 be eb a7 e7 3d ac a5 48 be
       0.24806748 -0.22354078 0.11311325 -0.19594449
0001e0 0d 02 37 be f4 a6 07 3e e6 3a 69 be 9e f5 18 3e
       -0.17871876 0.13247281 -0.22776374 0.14937446
0001f0 ee 49 26 be 3c 4d c0 3d 37 7b 95 3e 47 17 87 3d
       -0.1623914 0.09389731 0.29195568 0.06596237

sequential/conv2d_1/Conv2D f4 [32, 2, 2, 32]
000000 56 34 92 bd c1 26 39 3d 54 ee 6e 3e 52 66 32 be
       -0.071388885 0.045202974 0.23333102 -0.17421845
000010 ab 3f 2c 3e 1c d8 1e bd 04 1f cb 3d 77 38 82 3c
       0.16821162 -0.038780317 0.09918025 0.015896065
000020 5d 53 8b 3d 7d df 52 3e 4b 13 4a 3e f0 54 e4 be
       0.0680301 0.20593067 0.19733922 -0.44596052
000030 6b 20 50 be 00 8c a9 3c 76 6d 63 bd 81 5a 82 3d
       -0.20324866 0.02069664 -0.055524312 0.063649185
000040 18 a8 9b 3d 6a 04 f4 3d 4c 37 82 3e 2f c8 93 3e
       0.07600421 0.119149044 0.25432813 0.28863665
000050 2b 0c 6e be 3b 5d 29 3e 5e 0f fe bd 29 93 e7 3d
       -0.23246829 0.16539471 -0.12405275 0.113073654
000060 03 da 0e 3e ec 2a 39 be ba e4 1c 3e 87 16 90 be
       0.13950352 -0.1808278 0.15321627 -0.28142187
000070 cd 79 32 3e 5b 93 12 3d 26 fb 55 be 37 04 4d bd
       0.17429276 0.03578506 -0.20896587 -0.050052848
000080 ae dc 0e 3e f4 a7 89 bd 6a 8b 02 3e 4c d3 e3 3d
       0.1395137 -0.06721488 0.12748495 0.11124286
000090 86 25 5b be 2a d6 1c be 68 fb 57 3d 86 05 94 bd
       -0.21401033 -0.15316072 0.052729994 -0.07227616
0000a0 81 f2 b8 3c c0 57 5b 3c c2 8d 02 3e d5 6b 18 3d
       0.022576572 0.01338762 0.12749389 0.03721221
0000b0 f7 92 a4 3d a7 a5 a1 bd 7b 89 a0 be 14 36 06 3e
       0.08035844 -0.07892924 -0.3135489 0.13106567
0000c0 ab fd 99 3d 51 be 4f be 71 ea be 3d 39 52 75 bd
       0.075190865 -0.20287444 0.0932206 -0.059892867
0000d0 af 48 2d 3d be 38 13 bc d1 5e 07 be 1a 6a ca bd
       0.042305645 -0.008985696 -0.13219763 -0.098835185
0000e0 8e 8d 94 be 45 f2 ff bc 54 9d 5d bd 8e c5 3d 3d
       -0.29014248 -0.031243453 -0.054105118 0.04633098
0000f0 21 91 b3 3d 2b fc f6 3c 84 fa 7d bd 86 04 d9 3d
       0.087679155 0.03014954 -0.06200649 0.10596566
000100 83 bb bd be 38 1b b6 be 4c 47 37 3e 11 20 21 3e
       -0.37057123 -0.3556764 0.17898291 0.15734889
000110 7c 86 57 be e1 5e c2 3d 57 05 8d 3e df d0 1f be
       -0.21047395 0.09490753 0.27543136 -0.15607022
000120 21 3d cd be c2 81 29 be 50 72 56 be af ce 77 3e
       -0.400857 -0.16553405 -0.20942044 0.24199937
000130 f9 1a e7 3c e4 39 a0 be a3 86 14 be 0e e6 88 bd
       0.028211104 -0.31294167 -0.14504485 -0.066845044
000140 46 da 01 3c dd a3 33 be c2 03 fe bc 2e 9c 87 be
       0.007925576 -0.17542978 -0.031007651 -0.26486343
000150 2b f5 b8 3e 6f 54 f5 bd 2f ae 44 3c 24 44 f1 bd
       0.36124548 -0.11978995 0.012004419 -0.11780575
000160 9a 22 31 be b9 56 38 bd fb 55 ed 3c bc d5 1b bd
       -0.17298356 -0.04500458 0.028971663 -0.03804563
000170 c8 1f ab be 5b 5b 18 be e6 00 80 be 2e b9 08 3d
       -0.33422685 -0.148786 -0.25000685 0.033379726
000180 01 43 ab 3d ee 4a 36 3c db 18 1e be 6e e0 56 3e
       0.08362389 0.011126263 -0.15439169 0.2098405
000190 2f e2 6d bd 9d 92 08 bd 4f ad 2f 3e b7 ec ee bd
       -0.058077034 -0.033342946 0.17155956 -0.116662435
0001a0 b6 7a d7 3d 98 c7 a5 3e ed 30 73 3e a9 da cb bd
       0.10521452 0.3237884 0.23749132 -0.099538155
0001b0 28 d4 be 3d 94 68 56 3e 6d 20 72 3e 9b 9b 90 be
       0.09317809 0.20938331 0.23645182 -0.28243718
0001c0 d0 1b 20 3e e5 79 ea 3b 7f bc 74 be 7b e6 b5 bd
       0.1563561 0.0071556442 -0.2390003 -0.08881851
0001d0 94 4e 25 3e c8 54 be be 5b 8c d3 3e 74 7d a7 3d
       0.16143256 -0.37174058 0.4131802 0.08178225
0001e0 de c8 cf 3d 0b 9c c5 bd d1 f9 72 be 16 3b e6 3e
       0.10145734 -0.096489035 -0.2372811 0.44966954
0001f0 81 c5 e9 3d db 1d b5 3d 1e ac 34 be ac 84 9e 3e
       0.11414624 0.08843585 -0.17643782 0.30960596
000200 e3 a8 f3 bc 1b 88 98 3e 2b 35 da bd 0b c6 e3 3b
       -0.029743617 0.2979134 -0.10654672 0.006951099
000210 f1 4b f0 3d 4f ce be 3c 15 7f 6e 3c 8f ab a4 3e
       0.11733235 0.023291735 0.014556666 0.3216214
000220 8c 10 4a 3d 48 50 a5 3e 0b 99 16 3c 1e 5d 3a 3e
       0.049332187 0.32287812 0.009191762 0.18199584
000230 96 16 30 3e c3 dc e0 3c 95 0e da 3d 7f c8 2f be
       0.17196116 0.027449017 0.106473126 -0.17166327
000240 52 56 ff bd 03 b9 68 3d 7e 1a b5 bd d5 55 a4 3e
       -0.12467636 0.056817066 -0.088429436 0.32096735
000250 dc 93 30 3e bc b3 ba 3e a9 56 38 3d 99 f5 9c 3e
       0.17243904 0.3646525 0.04500452 0.30656126
000260 5c 7c 2c 3e 16 45 be 3d c1 a7 11 3e b5 8f 47 3e
       0.16844314 0.09290521 0.1422415 0.19488414
000270 3d 54 6e 3e 9d 49 cc 3d 00 75 82 3d bf 37 8c 3e
       0.23274322 0.09974978 0.06369972 0.2738628
000280 08 4f 9f be 27 f3 83 be a8 4a 3c be 50 d0 1d 3d
       -0.31114984 -0.25771448 -0.18387854 0.03852874
000290 dc 81 b6 bd 7e c9 c8 bd 38 60 d9 be b6 da a0 bd
       -0.089114875 -0.098040566 -0.42456222 -0.07854216
0002a0 46 ab 77 bd 38 e9 cc 3d cc 6d d2 3d 6a 76 65 bc
       -0.060466073 0.100054204 0.10274848 -0.014005283
0002b0 54 77 af be 30 c9 2a 3e f5 9f 36 bc ad df 30 be
       -0.34270728 0.1667831 -0.011146535 -0.17272826
0002c0 0c 0e 2a be 8e bc 04 3e 90 d6 e2 3d 0e a5 a1 bd
       -0.16606921 0.12962553 0.11076081 -0.0789281
0002d0 84 0f d8 3d 6f 0b 3d be 0d f8 56 be 43 7f 12 be
       0.10549834 -0.18461393 -0.20993061 -0.14306359
0002e0 0b 13 78 be e8 4f 03 be c5 3f 0f bc 98 1d 96 3d
       -0.24226014 -0.1282345 -0.008743231 0.07329863
0002f0 ba 0a 88 be 55 63 50 3e b9 e8 7d be af 52 87 3e
       -0.26570684 0.20350392 -0.24795808 0.2643027
000300 ac 38 5a 3e 5b 99 92 bd 70 a0 90 3e fd 5d b3 be
       0.21310681 -0.071581565 0.28247404 -0.35032645
000310 76 af 87 3e fe 6a c4 bd 19 9d b7 be 33 97 45 3e
       0.26501054 -0.0959072 -0.35862043 0.19295959
000320 c1 1b af 3d 13 69 1a bd 34 5c a0 3d db 23 10 bf
       0.085502155 -0.037697863 0.07830086 -0.5630471
000330 7e e4 40 3d 25 de d1 3d 7b e8 d6 be bf 82 67 3e
       0.047092907 0.10247449 -0.41974244 0.2260847
000340 2b 3d 4c be f0 9d 5d be cf bd ff b9 b8 94 d7 bd
       -0.19945209 -0.2164228 -0.0004877881 -0.10526413
000350 5d eb 3c 3d 7c 9f 96 3e 81 b4 b2 be 69 ee 34 3e
       0.046122897 0.29418552 -0.3490334 0.17669071
000360 19 fa b5 3e 72 e7 46 be 7a 7e d5 3d 84 66 e0 be
       0.35542372 -0.19424227 0.10424514 -0.43828213
000370 aa d6 19 be e2 33 08 be 32 76 7b be 4d e6 a6 bc
       -0.15023294 -0.13301042 -0.24556807 -0.020373488
000380 dc cb 24 be ca 07 15 bd 5f d7 39 3e 23 f7 3e be
       -0.16093391 -0.03638438 0.18148564 -0.18648963
000390 b3 95 20 bf 32 41 8e bd 11 df 41 bd e2 ca 00 3e
       -0.6272842 -0.06946029 -0.047331873 0.12577394
0003a0 70 38 b3 3d 51 71 98 3e 6f 2e 7e bc 81 06 38 be
       0.08750999 0.29773954 -0.015514 -0.17971231
0003b0 a1 5c 6e be 2d db 61 bc 15 83 8c 3d 48 6b 4f bd
       -0.23277523 -0.013785166 0.068609394 -0.05063942
0003c0 c4 68 0a 3c e8 ef cb 3d 43 3d 8b 3e 17 9f 0f 3e
       0.00844783 0.09957868 0.27195176 0.14025532
0003d0 98 a5 7c 3e da 7f 6d bd e7 36 e5 be a4 13 b5 bd
       0.24672544 -0.057983257 -0.4476845 -0.08841637
0003e0 0a 66 0d bc 15 c8 95 bc f2 85 67 3e da 95 e6 be
       -0.008630285 -0.018283883 0.2260969 -0.45036203
0003f0 a0 73 75 3e fc 1b 96 3e 8e 05 87 be 69 7a 89 3d
       0.23969889 0.29318225 -0.26371425 0.06712801

sequential/conv2d_2/Conv2D f4 [64, 2, 2, 32]
000000 ef 51 86 be bd 10 4c bc ee ae 70 3c 76 90 dc 3d
       -0.26234385 -0.012455163 0.014690144 0.10769741
000010 0e e6 02 bf 00 da f0 3c fe 92 df bc b9 e6 e6 3c
       -0.51132286 0.029400826 -0.027291771 0.028186189
000020 08 8e 27 bd 57 c8 7d 3c 45 30 e9 3d da 63 8a be
       -0.040906936 0.015489659 0.1138616 -0.27029306
000030 ad 24 5f bd 67 64 9b be f8 8c f8 bd f9 81 9d 3d
       -0.054478336 -0.30350038 -0.12136263 0.07690806
000040 80 c5 89 be 65 91 1c be 95 5b a0 bd 2e 5b 9e 3e
       -0.26908493 -0.15289839 -0.07829968 0.3092894
000050 92 5a ac 3c d9 fb 96 be fb 05 c0 3d 62 bc fb bb
       0.021039281 -0.2948902 0.09376141 -0.007682369
000060 b6 d1 04 bd 15 73 f5 3c 8e d4 33 3e 86 6f 7a be
       -0.03242656 0.029962102 0.17561552 -0.24456605
000070 46 12 05 3e 58 89 dc 3d ee 0d da bd 20 3b 51 3e
       0.12995252 0.10768384 -0.10647188 0.2043271
000080 41 ba 8e 3e 38 90 09 3e a1 e0 f7 3d 35 31 bf bd
       0.27876475 0.13433921 0.121033914 -0.09335557
000090 e8 13 95 be 78 29 7d be 2a de 08 be f4 eb 64 3d
       -0.2911675 -0.2472285 -0.13365999 0.055889085
0000a0 c6 00 4f 3e 52 83 77 3e 18 7f ec bd 9c b8 57 3d
       0.20215139 0.24171188 -0.11547679 0.05266629
0000b0 43 54 fa bc 48 65 c1 3b ae 4b f6 3d 19 fa 14 bd
       -0.030557757 0.0059019662 0.120261535 -0.036371324
0000c0 0a 71 00 3e af bf 39 3e a5 6c d3 bd f8 97 92 3d
       0.12543121 0.18139528 -0.10323457 0.07157892
0000d0 84 08 e2 be d3 c2 e6 3c dd 96 b9 3d e4 08 c4 3d
       -0.44147122 0.028169071 0.09061978 0.09572008
0000e0 c8 30 99 3d 64 96 1c be d9 5f 00 bd 1a 23 68 3e
       0.074800074 -0.15291744 -0.031341407 0.2266964
0000f0 15 f5 4a 3c 56 d1 ae be 0e aa 0b be 5b 32 82 3d
       0.012387534 -0.34144086 -0.1363909 0.06357261
000100 af 92 46 be 10 d6 d5 3d bc 86 0a bc 5c 0b ae bd
       -0.19391893 0.1044122 -0.008454975 -0.084982604
000110 56 dd 6c bd 71 80 aa bb 10 a8 98 3c 3d 93 2e 3e
       -0.05782827 -0.0052032997 0.018634826 0.17048354
000120 58 09 3f be 24 ee 59 bd 9d 50 aa 3c 54 73 a4 3b
       -0.18655908 -0.053205624 0.020790393 0.005018631
000130 ce 36 42 3d 0d 9e 81 bd c8 df ea 3d b7 c8 69 be
       0.047415547 -0.06328974 0.11468464 -0.22830473
000140 f6 1a 7b 3b 1f 3e a4 be c4 9c 90 bd 9a b7 53 3e
       0.003831563 -0.32078645 -0.07061151 0.20675507
000150 03 72 16 3e 54 34 4a be 1b f5 ab 3d ba 6b 4e 3c
       0.1469193 -0.19746524 0.083963595 0.012598926
000160 4d 97 b6 3e 7f a0 8a be fb ae 90 be e5 a1 0a 3d
       0.35662308 -0.27075574 -0.282585 0.0338458
000170 a7 f2 c4 bd 0b 32 ea 3d 45 c1 c3 be 50 bd 87 bd
       -0.09616595 0.11435326 -0.3823339 -0.06627905
000180 e9 38 8d 3e 21 f5 a0 3b 0d 0e 7d 3d 9d 9c 1b bd
       0.27582482 0.004912034 0.061780978 -0.037991155
000190 db e9 83 bd 85 8e e9 bd fa 95 ba 3c 7d a6 2a be
       -0.06441089 -0.114041366 0.022776593 -0.16665073
0001a0 aa 5d 45 be a0 06 46 be 8c 55 08 be 1b 0d c5 3c
       -0.19274011 -0.19338465 -0.13313884 0.0240541
0001b0 3f ba cf 3d de bd 56 bc d1 05 a0 3d 03 50 c3 3d
       0.101429455 -0.013106791 0.078136094 0.095367454
0001c0 cc eb 30 be 87 28 2f bd a9 0c 24 bd e6 15 a2 bd
       -0.1727745 -0.04276326 -0.040051136 -0.07914333
0001d0 94 bb 0d bc 0b 09 6b 3e c7 96 8f bb c3 87 8c 3d
       -0.008650679 0.22952668 -0.0043819877 0.06861832
0001e0 ae 64 34 3e c7 3d 48 be 4e 95 87 3d b5 ac 9c 3e
       0.17616531 -0.19554816 0.066202745 0.30600515
0001f0 23 fd c3 bd 49 9b 2e 3e 2c 1c ad 3d 89 d5 4b bd
       -0.09569766 0.17051424 0.08452639 -0.04976419
000200 58 be 3e 3e 21 21 99 bd 7e 47 ca bd cd 3e 20 3d
       0.18627298 -0.07477022 -0.09876917 0.03912239
000210 01 84 12 3e fc c3 53 bd 31 ae f0 bd b6 7f a0 bd
       0.14308168 -0.051700577 -0.117519744 -0.07836859
000220 14 10 1f bd 0f bd 89 3c 89 cf 54 bd 3e d9 33 bc
       -0.038833693 0.016813783 -0.051955733 -0.010977088
000230 5a 73 30 be 6d f2 84 3e 47 af 55 be d7 d4 39 bd
       -0.17231503 0.25966206 -0.20867644 -0.045368996
000240 22 b2 87 bd bc 08 3a 3e da 62 5b 3e 71 7d 31 be
       -0.06625773 0.18167394 0.21424428 -0.17333008
000250 22 fe f1 bd 47 12 23 3e 1f 06 b4 bd fc bd 04 3e
       -0.1181605 0.15924941 -0.0879023 0.12963098
000260 f4 42 84 3c 71 04 f6 3d 3c 3c e0 3c 9f 6a 00 3e
       0.016145207 0.12012566 0.027372472 0.12540673
000270 d5 c9 2a bd f0 1e 41 3e f0 8f fc 3d 5a b1 1c be
       -0.04169639 0.18859458 0.123321414 -0.15302029
000280 1d 34 96 bd a2 4d e4 bd 53 c6 fa bd 50 ea 68 3d
       -0.073341586 -0.1114762 -0.122448586 0.056864083
000290 b4 31 e0 bd de 93 e3 3d 9e f7 bd bd f7 a4 8f 3d
       -0.1094698 0.11112188 -0.09275745 0.070138864
0002a0 ab fe 67 bc 47 a6 34 3e ef 8e 2e 3e d6 fc 18 be
       -0.014159839 0.17641555 0.17046712 -0.149402
0002b0 a8 87 8f bd 4f 4c 28 bc 49 51 8a bd 00 5a 69 be
       -0.07008296 -0.0102721 -0.06753785 -0.22788239
0002c0 ba 95 38 be c2 cf 07 3e 90 97 a0 3e cf a7 24 3e
       -0.18025866 0.13262847 0.31365633 0.16079639
0002d0 d7 02 9c 3d ed ca cc 3c bd 78 fa bd 86 91 12 3e
       0.07617729 0.024999106 -0.1223006 0.14313325
0002e0 b0 c0 d3 3b a4 be a8 3c 69 de 86 bd 43 38 be bd
       0.006462179 0.020598717 -0.0658539 -0.09288075
0002f0 48 5e 05 3d dd 83 ad bd 19 68 67 3d cd b4 d8 3c
       0.032560617 -0.084724165 0.05649576 0.0264534
000300 4a d2 b7 bd cb 11 fa bc d7 89 11 be 12 30 48 bc
       -0.08975656 -0.030526062 -0.14212738 -0.012218492
000310 7a 32 dc bd 9b 5c de 3d 36 ef 82 be 09 89 38 3e
       -0.10751815 0.10857507 -0.25573128 0.18021025
000320 20 84 8b bd 55 16 0f 3e 6f bb 90 3d 8d f2 cc bd
       -0.0681231 0.13973363 0.07067 -0.100072004
000330 a8 90 e1 3d 25 3d 75 3d f9 98 06 bc 90 1e 92 3b
       0.11013919 0.059872765 -0.008215182 0.0044592097
000340 56 df fb 3c 5a 53 ce bb 2d 1c 05 3e 8f ec e7 bd
       0.030746143 -0.0062965574 0.1299903 -0.11324417
000350 bc ef 1f 3d 0f 27 27 3e 4b 2f e7 3c 96 f1 87 3d
       0.039046988 0.16323493 0.028220793 0.06637876
000360 e2 cf 0b 3e 80 98 ba 3c 96 5c be bd 00 ef 21 3d
       0.1365352 0.022777796 -0.09295003 0.03953457
000370 cc 15 71 3c a9 e0 84 bd 50 7c 04 be 84 06 f9 bc
       0.014714669 -0.06488163 -0.12938046 -0.030398615
000380 b5 80 c4 bd 69 b8 73 3d 24 e2 81 bd f2 04 b3 bd
       -0.095948614 0.05950204 -0.06341961 -0.087411776
000390 11 88 42 be 4c 05 2c 3e 33 51 5f be dd 02 3b 3e
       -0.18997218 0.16798896 -0.21808319 0.18262811
0003a0 d6 f1 98 3d 77 2f 10 3e 14 bb 5b 3d ac 45 c6 bd
       0.074680015 0.14080606 0.05364521 -0.096812576
0003b0 b6 44 92 3d 80 f7 61 3e 65 b4 d9 bb ba 43 60 bd
       0.07142012 0.2206707 -0.006643819 -0.05475209
0003c0 2c 51 a5 bd 63 f8 4f 3e 8f ae c7 3c 24 8b e0 3d
       -0.08072123 0.20309596 0.024375228 0.10964039
0003d0 b1 4e 08 3e ec fd 4f bc e6 f0 a6 bd c3 c2 1a 3e
       0.13311268 -0.012694817 -0.081514165 0.15113358
0003e0 99 e9 e2 3d b1 7c f6 3c 6a f5 17 bc 6f 74 cd bd
       0.110797115 0.030088754 -0.00927482 -0.100319736
0003f0 ee b7 0f be df 5f f1 bd 98 b9 8f bc 8a 50 05 be
       -0.14035007 -0.11785864 -0.017544553 -0.13019004
