wake_word_yes_lite.tflite (tflite, 70428 bytes, 9 tensors)

sequential/conv2d/BiasAdd/ReadVariableOp f4 [32]
0	0xbdb767f5	-0.08955375
1	0x3d99ac25	0.07503537
2	0x3db86ee7	0.09005528
3	0x3cdcaeac	0.026938759
4	0xbe103d20	-0.14085817
5	0xbe292efb	-0.16521828
6	0x3df1da3d	0.11809204
7	0xbcf07dcd	-0.029356861
8	0x3bc53814	0.006018648
9	0xbcafd8a8	-0.021465614
10	0xbe5b1b3a	-0.21397105
11	0xbcba8d39	-0.022772418
12	0x3e060b31	0.13090207
13	0xbd4001b0	-0.04687661
14	0x3e0889c7	0.13333808
15	0xbd0bfbf8	-0.034175843
16	0xbe499647	-0.19686233
17	0x3d84a864	0.064774305
18	0xbdad1df5	-0.084529795
19	0xbe170625	-0.14748438
20	0x3c8a85b5	0.01690946
21	0xbe3e4b44	-0.18583399
22	0xbe1c8271	-0.15284134
23	0x3d63d14c	0.055619523
24	0x3d5d17f0	0.053977907
25	0xbe0d31c3	-0.13788514
26	0x3c91e8bf	0.017811177
27	0xbe064f20	-0.13116121
28	0xbd79ea8f	-0.061014708
29	0x3d90573d	0.070478894
30	0x3dab50c8	0.08365017
31	0x3e0fbd50	0.1403706

sequential/conv2d_1/BiasAdd/ReadVariableOp f4 [32]
0	0xbe081669	-0.13289799
1	0x3da84622	0.08216502
2	0xbb1a74f9	-0.0023568256
3	0x3e4f2620	0.20229387
4	0x39e3cda6	0.00043450034
5	0xbc504432	-0.0127115715
6	0xbd4c57a3	-0.049888264
7	0xbdfc0e66	-0.12307434
8	0xbdbd08ed	-0.09230218
9	0xbdcd6231	-0.10028494
10	0xbe184574	-0.14870244
11	0x3cdaf6b5	0.026728967
12	0x3dd9a0db	0.10626384
13	0xbc9ff6aa	-0.019526798
14	0x3d164dcf	0.036695298
15	0xbd6770e0	-0.05650413
16	0x3d66f542	0.05638624
17	0xbd0cd80d	-0.03438573
18	0xbc3ca40d	-0.011513722
19	0xbd5dbcab	-0.054135006
20	0x3dd5ee1d	0.10445807
21	0xbd83c448	-0.06433922
22	0x3cb88368	0.022523597
23	0xbe4bc6eb	-0.199001
24	0xbdf760e1	-0.12079025
25	0x3ddafa3d	0.106922604
26	0xbc12817a	-0.008942002
27	0xbc23066e	-0.009950263
28	0xbd135872	-0.03597302
29	0xbc02f156	-0.007992109
30	0x3b410059	0.002944967
31	0xbe581021	-0.21099903

sequential/conv2d_2/BiasAdd/ReadVariableOp f4 [64]
0	0xbcb0139a	-0.021493722
1	0x3ca210bf	0.019783376
2	0xbd4db12e	-0.0502178
3	0x3d2e7309	0.042590175
4	0x3ce42bac	0.027852856
5	0x3bbb051a	0.0057073953
6	0xbd447895	-0.04796656
7	0xbbc8aa8d	-0.006123847
8	0xbd89b99c	-0.06724855
9	0x3c3c2ac9	0.01148481
10	0xbd401f72	-0.04690499
11	0xbd5435ec	-0.051809236
12	0xbd96a954	-0.073565155
13	0x3c93dd7b	0.018049946
14	0xbd96f203	-0.07370379
15	0xbd08c019	-0.033386324
16	0x3c5d9889	0.013525137
17	0xbd563118	-0.052292913
18	0xbc07ad13	-0.00828101
19	0xbd127978	-0.035760373
20	0x3c808ea8	0.015693024
21	0x3b7f115e	0.0038920264
22	0xbe16542d	-0.14680548
23	0xbc80a7b6	-0.01570497
24	0xbb3f20f4	-0.0029163929
25	0x3be2b5d8	0.00691865
26	0x3d5476ed	0.05187123
27	0xbc912b40	-0.017720819
28	0xbd9c4c18	-0.07631701
29	0x3c6d12ec	0.014469843
30	0xbe377e6b	-0.17919318
31	0xbd02931b	-0.031878572
32	0x3ab0706c	0.0013461239
33	0x3c5cbc5c	0.013472643
34	0xbd0ac48d	-0.03387885
35	0xbd129fc3	-0.035796892
36	0xbdeeabe6	-0.11653881
37	0xbcad0138	-0.021118745
38	0xbc5e011b	-0.013550068
39	0xbdc3b606	-0.095562026
40	0xbc3322ab	-0.010933558
41	0xbbf12a42	-0.007359774
42	0xbc930586	-0.01794697
43	0x3c73dd5c	0.014884319
44	0xbb34e23e	-0.0027600671
45	0xbe0beeab	-0.13665263
46	0x3b069eab	0.002054135
47	0x3c103a51	0.008802966
48	0x3d12b415	0.03581627
49	0xbd1b5348	-0.03792122
50	0xbe2d1ba2	-0.16905072
51	0x3c07927c	0.008274671
52	0xbd2796ef	-0.040915426
53	0x3ba06337	0.00489464
54	0xbcbabdb9	-0.022795545
55	0xbd4d39c6	-0.050103925
56	0x3bf91f9b	0.0076026446
57	0xbd6c4187	-0.05767968
58	0xbc8628b8	-0.016376838
59	0xbdbbbcff	-0.091669075
60	0x3cdf22f6	0.02723835
61	0x3d0a8f4a	0.033828057
62	0xbd167105	-0.036728878
63	0x3b276508	0.0025542397

sequential/dense/BiasAdd/ReadVariableOp f4 [64]
0	0x3c895c74	0.016767718
1	0xbb84d224	-0.004053371
2	0x3db33e96	0.08752172
3	0xbb539efb	-0.0032290805
4	0xbc9c3cb1	-0.019071909
5	0xbc97b13f	-0.018517135
6	0xbd00858a	-0.031377353
7	0x3c68fde5	0.014220689
8	0x3ca75435	0.020425895
9	0xbb5f7068	-0.00340941
10	0xbd9b8ee8	-0.075956166
11	0xbd1d0b1b	-0.03834067
12	0xbc1d4ecf	-0.009601309
13	0x3d323473	0.04350705
14	0x3d2cfe01	0.042234425
15	0xbc807a64	-0.01568336
16	0xbd40e0cc	-0.047089383
17	0xbd614d1c	-0.055005178
18	0xbc896b17	-0.016774697
19	0x3c8f6931	0.017506214
20	0xbc8b0805	-0.016971597
21	0xbb97a12d	-0.004627368
22	0xbd1f92bf	-0.038958307
23	0x3c34be7c	0.011031743
24	0x3d6110ce	0.054947667
25	0x3d1c214c	0.038117692
26	0x3bf1c8e3	0.007378684
27	0xbcea52ed	-0.028603995
28	0xbc5aff71	-0.013366566
29	0xbbf81496	-0.0075708134
30	0xbca964f6	-0.020678025
31	0x3bd15d11	0.006389268
32	0x3d363af6	0.044489823
33	0x3c9230bd	0.017845506
34	0xbbec8d49	-0.007218991
35	0xbceebbd5	-0.0291423
36	0xbd4c0ee3	-0.049818885
37	0xbc45f527	-0.012082375
38	0xbcb86a04	-0.02251149
39	0xbc84864b	-0.016177317
40	0x3cd395b7	0.025828226
41	0x3cf24df7	0.029578192
42	0xbd5b01e2	-0.053468592
43	0xbd6c5fc4	-0.057708517
44	0x3d3f0d00	0.046643257
45	0x3d89e5a5	0.06733254
46	0x3d558797	0.05213126
47	0xbc42a5a8	-0.011880316
48	0x3b4ec027	0.0031547637
49	0xbba5225d	-0.005039497
50	0x3d52448d	0.051334906
51	0x3bf5a371	0.0074962904
52	0x3b30fcfe	0.0027006264
53	0xbacf1239	-0.0015798277
54	0x3da93e9d	0.08263896
55	0xbd3a5061	-0.04548681
56	0x3d5a85a3	0.053350102
57	0xbca41ec5	-0.020034203
58	0xba817c55	-0.0009878973
59	0xbd1b9615	-0.037984926
60	0x3d40a606	0.047033332
61	0x3ce551b1	0.027993055
62	0xbd0344af	-0.032047924
63	0xbd96ac0b	-0.07357033

sequential/conv2d/Conv2D f4 [32, 2, 2, 1]
0	0xbe45e550	-0.19325757
1	0x3dc079aa	0.093982056
2	0xbdad9d32	-0.08477248
3	0xbd824940	-0.063616276
4	0x3e42403a	0.18969813
5	0x3d01f18a	0.03172449
6	0x3ec38764	0.38189232
7	0x3eb36fdc	0.3504628
8	0xbe595d10	-0.21226907
9	0x3e5059b6	0.20346722
10	0x3e27b873	0.16378956
11	0xbe40fef4	-0.18847257
12	0xbe66cbf5	-0.22538741
13	0x3e330275	0.17481406
14	0x3e773b6a	0.24143758
15	0xbe2fd69a	-0.17171708
16	0x3df8fa48	0.12157112
17	0xbe353560	-0.17696142
18	0x3d2453c7	0.04011896
19	0xbe7f0c97	-0.24907146
20	0x3e8e5eaa	0.27806598
21	0x3dde5295	0.10855595
22	0xbdbb2860	-0.0913856
23	0xbe151d01	-0.14561845
24	0x3e0a38d6	0.13498244
25	0x3e8fa5c0	0.28056145
26	0x3d957960	0.07298541
27	0xbe46ec30	-0.19426036
28	0xbd8abbf3	-0.0677413
29	0xbe47d89c	-0.19516224
30	0x3e9a33c1	0.3011761
31	0x3dd6de3e	0.10491608
32	0xbd5906aa	-0.05298487
33	0x3e445672	0.19173601
34	0xbc531a49	-0.012884685
35	0xbe1265ef	-0.14296697
36	0x3e5059b0	0.20346713
37	0xbe7dcf93	-0.24786215
38	0x3e6e26a9	0.23256935
39	0xbe08f2da	-0.1337389
40	0xbe25341b	-0.16133158
41	0x3e124d00	0.14287186
42	0xbe9da5ce	-0.3079056
43	0xbe8faf57	-0.2806346
44	0xbe2fc5ab	-0.17165248
45	0x3de3bf07	0.1112042
46	0xbdb47aad	-0.08812461
47	0xbd88a613	-0.06672301
48	0xbddc8165	-0.107668675
49	0xbdde4e68	-0.108547986
50	0xbda9058d	-0.08253012
51	0x3e3cf1d5	0.18451627
52	0x3e324b0b	0.17411439
53	0xbd154e1f	-0.036451455
54	0xbd4704f0	-0.048588693
55	0xbd21592a	-0.039391674
56	0x3ed36c84	0.41293728
57	0x3ebbb75e	0.36663336
58	0x3e5b16b7	0.21395384
59	0x3d39990b	0.04531197
60	0xbd8d177b	-0.06889244
61	0xbda0bdf7	-0.07848733
62	0x3d8a36f0	0.0674876
63	0xbe3e4db4	-0.18584329
64	0x3d8b0e11	0.06789792
65	0x3da6b5d5	0.081401505
66	0xbe93ce34	-0.28868258
67	0x3d3d02ca	0.046145238
68	0x3d4435ac	0.047902748
69	0xbe1682b8	-0.14698303
70	0x3df864f0	0.12128627
71	0x3d289683	0.041159164
72	0x3e4434a6	0.19160709
73	0x3d372e69	0.044721995
74	0xbeab6432	-0.3347488
75	0x3e626bca	0.22111431
76	0x3dcb6a6e	0.09932409
77	0xbe2bbbb7	-0.16770826
78	0xbe0d8b67	-0.13822709
79	0xbd08fa15	-0.03344162
80	0xbdd0e496	-0.10199849
81	0x3e160482	0.14650157
82	0x3dbfec76	0.09371273
83	0xbdb7868a	-0.08961208
84	0x3dedb00e	0.116058454
85	0xbe34a647	-0.17641555
86	0x3d9c272b	0.07624658
87	0xbe92ab3a	-0.2864626
88	0x3d5a9090	0.05336052
89	0xbdda5534	-0.106607825
90	0xbc0f26f4	-0.0087373145
91	0xbe50ec5b	-0.20402662
92	0xbd0dbcfd	-0.03460406
93	0xbe381876	-0.17978081
94	0xbeb6029d	-0.3554887
95	0xbe57f775	-0.21090491
96	0x3e308197	0.17236935
97	0xbd44e648	-0.048071176
98	0xbec36f98	-0.38171077
99	0x3e958a95	0.29207292
100	0xbcce4e04	-0.025183685
101	0x3ede1537	0.4337556
102	0xbc78d6aa	-0.015187899
103	0xbe6004f7	-0.21876894
104	0xbcdc50b9	-0.02689396
105	0xbd9edc7d	-0.077568986
106	0xbe2953ac	-0.16535825
107	0x3e4b4389	0.19849981
108	0x3be8c4eb	0.0071035526
109	0xbdcc70e7	-0.09982472
110	0xbe81060e	-0.25199932
111	0x3e64e10b	0.22351472
112	0x3e22ac0b	0.15885942
113	0xbe68109b	-0.22662584
114	0x3e3b2e51	0.18279387
115	0xbe4642d7	-0.19361435
116	0x3dbcfe5c	0.09228203
117	0x3e072326	0.13197002
118	0x3eb6efae	0.35729736
119	0xbea4dd8b	-0.32200274
120	0xbdd686da	-0.1047494
121	0x3c2d028a	0.010559687
122	0x3da78f08	0.08181578
123	0x3dff3011	0.1246034
124	0x3cca88c2	0.024723414
125	0xbd0a96ce	-0.033835225
126	0x3ce8e628	0.02843006
127	0x3e9c2810	0.30499315

sequential/conv2d_1/Conv2D f4 [32, 2, 2, 32]
0	0xbee1d887	-0.4411051
1	0xbb9c0fe4	-0.0047626365
2	0xbe7f6411	-0.24940516
3	0x3b4270e7	0.0029669346
4	0x3d7e87cc	0.062141225
5	0x3e1f75c7	0.15572272
6	0x3c823997	0.015896602
7	0xbd5a877d	-0.053351868
8	0xbd3bb462	-0.045826323
9	0x3d131479	0.035908196
10	0xbe8ceb8f	-0.27523467
11	0xbeae23d2	-0.34011704
12	0xbe04e64f	-0.12978481
13	0x3c693ad7	0.01423522
14	0xbe17c617	-0.14821659
15	0xbe717e19	-0.23583259
16	0xbd06bc19	-0.032894228
17	0xbd5fe53c	-0.054661974
18	0x3d10d9b5	0.03536387
19	0xbcc7ab7b	-0.02437376
20	0x3ce388b2	0.027775142
21	0x3d10da27	0.035364296
22	0x3d0840a4	0.03326477
23	0xbe755d93	-0.23961477
24	0x3e1d5aa2	0.15366605
25	0x3d7c1277	0.061541047
26	0xbdab38df	-0.08360457
27	0xbe19337d	-0.14961047
28	0x3d16d9cb	0.036828797
29	0xbd6919db	-0.056909423
30	0x3dc0b717	0.094099216
31	0xbdb3c79e	-0.08778308
32	0xbdf6e4d7	-0.120553665
33	0x3e440843	0.19143777
34	0xbe5bd15e	-0.21466586
35	0xbdd0a625	-0.101879396
36	0xbdeb2f83	-0.114836715
37	0xbe2d9daa	-0.16954675
38	0xbdad98cb	-0.084764086
39	0x3e661b2a	0.224713
40	0xbd558411	-0.0521279
41	0x3dbfd4e1	0.09366775
42	0x3e20d55f	0.15706395
43	0x3c7da656	0.015481552
44	0x3d90fe41	0.07079745
45	0xbe2d749a	-0.16939011
46	0xbd79960f	-0.060934123
47	0x3cae507a	0.021278609
48	0x3e224461	0.15846397
49	0x3e41e0b4	0.18933374
50	0xbdf80499	-0.12110252
51	0xbd8a655a	-0.067576125
52	0xbde24928	-0.1104911
53	0x3be8e7ba	0.007107702
54	0x3cf528ef	0.029926745
55	0x3cc30917	0.023808045
56	0xbd01c0c4	-0.031677976
57	0xbde2d35b	-0.11075469
58	0x3ba2c078	0.0049667917
59	0x3e547dfd	0.20751186
60	0xbdef5886	-0.116868064
61	0xbe3289cb	-0.17435376
62	0x3e191560	0.1494956
63	0x3d8b347f	0.06797122
64	0x3c865faa	0.016403038
65	0xbddf07b0	-0.10890138
66	0x3bc10b61	0.005891249
67	0xbd7f7661	-0.062368754
68	0x3d6e9640	0.05824876
69	0xbe478331	-0.1948364
70	0xbc26e2f4	-0.010185946
71	0x3e925c9c	0.2858628
72	0x3c76ff2e	0.015075488
73	0x3d1fddb1	0.03902978
74	0xbd9bdee6	-0.07610874
75	0xbe36740e	-0.17817709
76	0x3e2aab13	0.16666822
77	0xbda35133	-0.07974472
78	0xbe0b2904	-0.13589865
79	0x3d3eabe2	0.04655064
80	0xbe40efd4	-0.18841487
81	0x3e90eb07	0.28304312
82	0xbece7f0b	-0.403313
83	0x3d9831bf	0.07431363
84	0xbe356ff8	-0.17718494
85	0x3e03515d	0.12824006
86	0x3df7550e	0.1207677
87	0x3d7745dd	0.06036936
88	0xbe2e58b5	-0.17026027
89	0xbda21ab7	-0.07915252
90	0x3e564b69	0.20927204
91	0xbd034573	-0.032048654
92	0xbd2b4a04	-0.041818634
93	0x3de9aa71	0.11409462
94	0x3d3b7e92	0.045775004
95	0x3c6eea75	0.014582266
96	0x3dc17163	0.09445455
97	0xbda5bb25	-0.080923356
98	0x3d40a533	0.047032546
99	0x3e54f0e9	0.20795025
100	0x3e541bec	0.20713776
101	0x3e10dafa	0.14146033
102	0xbd6773cb	-0.056506913
103	0x3e066d5a	0.13127652
104	0xbdae2e7f	-0.08504962
105	0x3dbfdcd9	0.09368295
106	0x3db69154	0.08914438
107	0x3b9d6f41	0.0048045223
108	0x3e115fed	0.14196749
109	0x3e1007a0	0.14065409
110	0xbcb0a892	-0.021564756
111	0x3c26db4a	0.0101841185
112	0x3d1a9530	0.037739933
113	0x3e99ff23	0.30077466
114	0xbe160321	-0.14649631
115	0xbd8e888a	-0.069596365
116	0xbe43f00e	-0.19134542
117	0x3dfeb0bf	0.124360554
118	0x3d6f85a8	0.058477074
119	0x3e4405b8	0.19142807
120	0xbe17aeba	-0.14812747
121	0x3c937414	0.017999686
122	0x3e66e599	0.22548522
123	0xbdd3e5fa	-0.10346599
124	0x3c671b8a	0.014105687
125	0x3d3f9c05	0.04677965
126	0x3e803d70	0.25046873
127	0xbe91b203	-0.28456125
128	0xbc71e2c9	-0.014763542
129	0x3e1324d4	0.14369518
130	0xbd074fee	-0.03303521
131	0xbde6a7df	-0.112624876
132	0xbd00dbc5	-0.03145959
133	0xbe134b4c	-0.14384192
134	0xbdaf8b08	-0.0857144
135	0xbd200c28	-0.039074093
136	0xbe4121ca	-0.18860546
137	0x3dc2d2fa	0.09512897
138	0x3ca1e43a	0.019762147
139	0x3d791274	0.060808614
140	0x3da07bd1	0.07836116
141	0xbd6ab1e5	-0.05729856
142	0x3bb9082b	0.0056467257
143	0xbe55c5fa	-0.20876303
144	0xbc02031d	-0.007935313
145	0x3e17d2d8	0.14826524
146	0xbd463096	-0.04838618
147	0xbd32354c	-0.04350786
148	0x3d9f1e56	0.07769458
149	0x3e0f87e6	0.14016685
150	0x3cbfa80c	0.02339556
151	0xbe045a1e	-0.12925002
152	0x3dc8bac1	0.098012455
153	0xbc67a016	-0.014137289
154	0xbe2575c9	-0.16158213
155	0xbec0552e	-0.37564987
156	0xbc21f701	-0.0098855505
157	0x3d0fff61	0.035155658
158	0xbdc281bc	-0.09497401
159	0x3df4a5be	0.11945675
160	0xbd8cbad5	-0.06871573
161	0xbe17898a	-0.1479856
162	0x3ed4e474	0.41580546
163	0x3ed6d1d6	0.41956967
164	0x3d91afec	0.071136326
165	0x3da5d5e0	0.08097434
166	0x3e726b95	0.23673852
167	0xbe456f8d	-0.19280834
168	0x3db3594f	0.08757269
169	0x3d933e38	0.07189602
170	0xbd28547f	-0.041096207
171	0x3e1d0d92	0.15337208
172	0xbd522ee2	-0.051314242
173	0xbd95e9df	-0.07319998
174	0x3e21c3e3	0.15797381
175	0x3e08ea1a	0.13370553
176	0xbe5f0d02	-0.21782306
177	0x3d4ea10f	0.050446566
178	0xbd845ac3	-0.06462624
179	0xbd750732	-0.059821315
180	0x3e34d66d	0.17659922
181	0x3e4325c1	0.1905737
182	0xbdaa291f	-0.083086245
183	0xbcf06f89	-0.02935006
184	0x3db20d3b	0.0869393
185	0x3e506fe7	0.20355187
186	0xbdc730eb	-0.09726127
187	0xbc3936a9	-0.011304536
188	0xbd6fafb7	-0.058517184
189	0x3e12ad4f	0.14323924
190	0xbe691d02	-0.22764972
191	0xbe802a0f	-0.25032088
192	0xbe5552c1	-0.2083235
193	0x3dcd8f30	0.100370765
194	0x3ea43cfe	0.32077783
195	0xbdc8bee4	-0.098020345
196	0xbdaa7f84	-0.08325103
197	0x3e0b16da	0.13582936
198	0x3d538307	0.05163863
199	0xbec8a5d3	-0.39189014
200	0xbe1874f7	-0.14888369
201	0xbea9bb5d	-0.3315076
202	0xbe16f195	-0.14740594
203	0x3db992c2	0.09061195
204	0x3d735c15	0.05941399
205	0x3df41b30	0.11919248
206	0x3dc592f9	0.096471734
207	0xba41da28	-0.00073948735
208	0xbd06196e	-0.032739095
209	0xbebe03f4	-0.3711239
210	0xbd1b23f1	-0.037876073
211	0x3ccfaca6	0.02535088
212	0x3e7ef6eb	0.24898879
213	0xbcc537ec	-0.024074517
214	0xbe0b6417	-0.136124
215	0xbdc4bea5	-0.09606675
216	0xbe9792da	-0.29604226
217	0xbce1de7a	-0.027571905
218	0x3e0668f8	0.1312598
219	0xbe6b3d40	-0.22972584
220	0xbb1a70bb	-0.0023565728
221	0xbc4889df	-0.012239902
222	0xbd9cea55	-0.07661883
223	0xbc632733	-0.013864326
224	0x3d8aa1f7	0.067691736
225	0xbd5c3be0	-0.05376804
226	0x3d8ed0c6	0.06973414
227	0x3e2d759b	0.16939394
228	0x3dbd6506	0.09247784
229	0x3d4328fa	0.0476465
230	0xbe023c02	-0.12718204
231	0xbe4db14b	-0.20087163
232	0xbc0f875a	-0.008760298
233	0xbd6becfa	-0.057599045
234	0x3d85bf5a	0.06530638
235	0xbce6850c	-0.028139614
236	0xbe1a4086	-0.15063676
237	0x3e10d5a2	0.14143994
238	0xbdd2b3c4	-0.10288194
239	0xbd887054	-0.0666205
240	0xbe050e7d	-0.12993808
241	0x3cdb3e5d	0.026763136
242	0xbe90e203	-0.28297433
243	0x3dfd702b	0.1237491
244	0xbd2b300c	-0.041793868
245	0xbdcabb6e	-0.098990306
246	0x3e13c64e	0.14431116
247	0x3ddedf8e	0.108824834
248	0xbe1c2eba	-0.152522
249	0xbd0141e1	-0.031556968
250	0xbdfea69c	-0.12434122
251	0x3e103540	0.14082813
252	0x3ca5516b	0.020180425
253	0x3d6b0f30	0.05738753
254	0xbe04c99d	-0.12967534
255	0x3d52f5a6	0.0515038

sequential/conv2d_2/Conv2D f4 [64, 2, 2, 32]
0	0xbe1ab03d	-0.15106292
1	0xbdda4e1c	-0.106594294
2	0xbdabaefb	-0.08382984
3	0xbdd0769d	-0.10178874
4	0x3da0246f	0.07819449
5	0xbdfd4458	-0.12366551
6	0xbdb8bd04	-0.09020427
7	0xbd6f2d6b	-0.058392923
8	0xbdac4cde	-0.08413099
9	0x3cab451b	0.020906975
10	0x3cab1840	0.020885587
11	0xbda5675f	-0.08076357
12	0xbdf87bc4	-0.121329814
13	0xbcb2e4f9	-0.021837698
14	0x3d05756c	0.032582685
15	0xbd44d0b0	-0.048050582
16	0xbb972034	-0.004611993
17	0xbda06661	-0.07832027
18	0x3db72b14	0.089437634
19	0x3d09713a	0.033555247
20	0x3c8616bb	0.01636826
21	0x3de563a6	0.11200647
22	0x3d7e31a4	0.06205906
23	0xbe0589f6	-0.13040909
24	0xbd8d0ce4	-0.06887224
25	0xbdc443f7	-0.09583276
26	0xbd9f0560	-0.07764697
27	0xbb0ae1e0	-0.002119176
28	0x3d38111c	0.04493819
29	0xbd4bef2a	-0.04978863
30	0xbd8b6683	-0.06806662
31	0xbd5037e4	-0.05083455
32	0x3d521a5b	0.051294666
33	0x3d1d2cbd	0.038372744
34	0xbe07eba9	-0.13273491
35	0xbcec35b2	-0.028834198
36	0xbd0afd36	-0.033932887
37	0x3cf89894	0.030346192
38	0x3dade5aa	0.084910706
39	0x3bf2e4ba	0.0074125202
40	0x3cdd6402	0.027025227
41	0xbd882ff1	-0.06649769
42	0xbdf5ea55	-0.12007586
43	0x3ceb3f85	0.028716812
44	0xbd68f4e7	-0.056874182
45	0xbcbb8660	-0.022891223
46	0xbc8fc0f2	-0.017548058
47	0xbe187e9b	-0.14892046
48	0xbe0738e8	-0.13205302
49	0xbaa72760	-0.0012752824
50	0xbe024db2	-0.12724951
51	0x3d931a02	0.07182695
52	0x3d2712a3	0.040789258
53	0xbdb4a2e1	-0.08820129
54	0xbd88cc0b	-0.06679543
55	0xbdef17eb	-0.11674484
56	0xbd140b33	-0.036143493
57	0x3daeadf6	0.08529274
58	0xbd36c49a	-0.044621088
59	0x3cb30f13	0.021857774
60	0xbd4147ae	-0.0471875
61	0xbccd0fd1	-0.025031956
62	0x3da75e0e	0.081722364
63	0x3da1fa03	0.07909014
64	0xbafd34aa	-0.0019318063
65	0xbc4ace64	-0.012378309
66	0x3b5c8144	0.0033646384
67	0xbc5b2904	-0.013376478
68	0xbd603e7a	-0.054747082
69	0xbde59977	-0.11210912
70	0xbdbe0d15	-0.09279839
71	0xbe183cf1	-0.14866997
72	0xbe07bc52	-0.13255432
73	0x3d3e3660	0.046438575
74	0xbc8eeb0f	-0.017446069
75	0xbd0ee5cb	-0.034887116
76	0x3d527492	0.0513807
77	0xbd8e6e6d	-0.06954656
78	0x3d17b170	0.037034452
79	0xbd0859e5	-0.033288855
80	0xbe04c2fd	-0.12965007
81	0xbd06408f	-0.03277641
82	0x3d722f8c	0.059127375
83	0xbd3e9b2f	-0.046534713
84	0x3db2cd0d	0.087305166
85	0xbdcd4bba	-0.10024209
86	0xbdc838ce	-0.0977646
87	0xbd246b00	-0.040141106
88	0xbdbe7ee2	-0.09301545
89	0xbcbda956	-0.023152035
90	0xbd95338d	-0.07285223
91	0xbdf288e5	-0.11842517
92	0x3d5f854f	0.054570492
93	0x3d750c2d	0.059826065
94	0x3d7dfd2c	0.06200902
95	0xbcbcf3e8	-0.023065522
96	0xbc544b51	-0.01295741
97	0x3dcbc33e	0.09949349
98	0xbc61895e	-0.013765661
99	0x3cc3bda5	0.02389414
100	0xbd3471de	-0.044053905
101	0xbab12feb	-0.0013518309
102	0x3d892b4f	0.066977136
103	0x3dbc2cfa	0.09188266
104	0xbe10a5ef	-0.14125799
105	0x3c8bca31	0.017064186
106	0x3d8e3d0e	0.06945239
107	0xbdfd9721	-0.12382341
108	0x3dac1144	0.08401731
109	0x3dc885a1	0.09791113
110	0x3bb136e7	0.005408156
111	0xbd14e0ca	-0.036347188
112	0xbc296bf8	-0.010340683
113	0xbdc25daa	-0.09490521
114	0x3d5dd33a	0.05415652
115	0xbd253582	-0.040334232
116	0x3cc08357	0.023500128
117	0x3dd51dd3	0.10406079
118	0x3b95a3e1	0.004566655
119	0xbc3c72a7	-0.011501945
120	0xb896b8a0	-7.1869465e-05
121	0xbdb7b4ba	-0.08970018
122	0xbd95c921	-0.07313753
123	0xbd973962	-0.07383992
124	0x3c100684	0.008790616
125	0x3d41220e	0.047151618
126	0xbdab772d	-0.0837234
127	0x3d2df679	0.042471383
128	0xbe353579	-0.1769618
129	0x3cc3457f	0.02383685
130	0x3dc348e1	0.09535385
131	0xbe84d538	-0.25943923
132	0xbd9109a9	-0.07081921
133	0x3d62bfd5	0.055358727
134	0x3d8a4f95	0.0675346
135	0x3e1371ce	0.14398882
136	0x3cbacd29	0.022802906
137	0x3dc916c1	0.09818793
138	0x3ea6393c	0.3246554
139	0xbdbf180b	-0.09330758
140	0xbc4f3b85	-0.012648468
141	0x3bd42a2c	0.006474754
142	0x3dd4dcdf	0.1039369
143	0x3e2bd4c0	0.16780376
144	0x3d647e83	0.055784713
145	0xbd3b8b93	-0.045787405
146	0xbe09ed55	-0.13469441
147	0x3e2105de	0.15724894
148	0x3e35308f	0.17694305
149	0xbe28f1c4	-0.16498476
150	0x3cab1000	0.020881653
151	0xbdb14484	-0.086556464
152	0x3e295480	0.1653614
153	0x3d1a848b	0.03772406
154	0xbe0b3a29	-0.13596405
155	0xbd043c31	-0.032283965
156	0x3d915179	0.07095618
157	0xbd1a16a4	-0.037619248
158	0x3d7bff21	0.061522607
159	0xbc71d250	-0.014759615
160	0x3d28fb06	0.04125502
161	0x3cc53b3b	0.024076095
162	0x3d8977d3	0.06712308
163	0x3d4c953f	0.04994702
164	0xbc03129a	-0.00800004
165	0xbe605381	-0.21906854
166	0xbe427a92	-0.1899207
167	0xbe2a157e	-0.16609761
168	0x3d67b8d1	0.05657274
169	0xbdd3f3d1	-0.10349239
170	0xbe121c28	-0.14268553
171	0x3d0721a9	0.032991085
172	0xbdf89f58	-0.121397674
173	0xbe9dc9c2	-0.30817991
174	0xbdf38d03	-0.1189213
175	0xbdfaab29	-0.122396775
176	0xbe4528d7	-0.1925386
177	0x3e0c409c	0.13696522
178	0xbdbeeda1	-0.09322668
179	0xbcfe0984	-0.031010397
180	0x3e1ce121	0.15320255
181	0x3d95969f	0.07304119
182	0xbdb602e2	-0.088872686
183	0xbdbdf16b	-0.092745624
184	0xbddbaa17	-0.107258014
185	0x3da24aac	0.07924399
186	0x3df9f56b	0.12205013
187	0x3e23726e	0.1596162
188	0xbd3d0f95	-0.04615744
189	0x3da6f43c	0.08152053
190	0x3d23cb64	0.03998889
191	0xbe7e86eb	-0.24856155
192	0xbbc3234b	-0.005955135
193	0x3da5cd2f	0.08095776
194	0x3ce47ac0	0.027890563
195	0x3d49f89c	0.049309358
196	0x3ba01e8e	0.004886455
197	0x3d147a23	0.03624929
198	0x3d5897f9	0.052879307
199	0xbdbae834	-0.091263205
200	0xbe482c87	-0.19548236
201	0xbabebc0b	-0.0014551891
202	0x3cb3fdbb	0.021971574
203	0x3dddcb6e	0.10829817
204	0x3e3d4636	0.18483815
205	0xbe381eee	-0.17980549
206	0x3bf668ca	0.007519816
207	0xbdd411c3	-0.1035495
208	0xbdf2bde4	-0.11852625
209	0x3df7e56c	0.121043056
210	0x3c6b4b61	0.014361233
211	0x3e175fd8	0.14782655
212	0xbe99c6f1	-0.30034593
213	0xbd21fd8b	-0.039548438
214	0x3e459476	0.19294915
215	0x3dba588d	0.09098921
216	0xbc486023	-0.012229952
217	0x3d8a13aa	0.06742032
218	0x3e018af7	0.12650667
219	0xbecb50f4	-0.397102
220	0x3da2f81e	0.07957481
221	0x3de41761	0.11137272
222	0xbe5e9a6a	-0.21738592
223	0x3e156a51	0.14591338
224	0xbbb0b7cb	-0.0053930036
225	0x3e38b168	0.18036425
226	0x3e0856e4	0.13314396
227	0xbe1e7a13	-0.15476255
228	0x3cd5edcc	0.026114367
229	0x3bdb0c5b	0.0066848225
230	0x3e9f8d4c	0.31162488
231	0xbdb06e63	-0.086148046
232	0x3e08574c	0.13314551
233	0x3e7efa5a	0.24900189
234	0xbd6ea5e2	-0.058263667
235	0x3da21364	0.07913855
236	0xbd9a8792	-0.07545389
237	0xbd17f2d7	-0.037096824
238	0xbd393cd2	-0.04522402
239	0x3d85b2e6	0.06528263
240	0xbd8339b0	-0.064074874
241	0x3de934b5	0.11387006
242	0x3e518253	0.20459871
243	0xbc16e43b	-0.009209688
244	0x3d2c3c9c	0.04204999
245	0x3e28ab5d	0.1647162
246	0x3e8c5387	0.27407476
247	0xbd097ae2	-0.033564456
248	0x3d2090a8	0.039200455
249	0xbd07008e	-0.032959513
250	0x3dbf15a2	0.09330298
251	0xbe89273a	-0.2678774
252	0xbde5af2a	-0.112150505
253	0x3d9693b4	0.07352391
254	0xbe178876	-0.1479815
255	0x3e08aca1	0.13347103

sequential/dense/MatMul f4 [64, 64]
0	0x3e3a2d11	0.18181254
1	0xbdcfe497	-0.10151022
2	0xbb8febb1	-0.0043921103
3	0x3d4b69bf	0.049661394
4	0xbda984d4	-0.08277288
5	0x3e0c5878	0.13705623
6	0xbdaae877	-0.083451204
7	0xbdcfd1d0	-0.101474404
8	0xbc5b8ea8	-0.013400711
9	0xbbcfa1dc	-0.006336434
10	0x3e8406c0	0.257864
11	0x3e8d8bda	0.2764576
12	0xbcfbab93	-0.030721461
13	0xbd9831cc	-0.07431373
14	0xbd94e7bf	-0.072707646
15	0xbe6fcc68	-0.23417819
16	0xbe3201a6	-0.17383441
17	0x3e5448c5	0.20730884
18	0x3dec0e36	0.11526148
19	0xbd9618c9	-0.07328946
20	0xbe123f12	-0.14281872
21	0xbe41afd2	-0.18914726
22	0x3e83627f	0.25661084
23	0x3e03e5a6	0.12880573
24	0x3dfca0c9	0.12335355
25	0x3e7ae7db	0.24502508
26	0xbe3c6ac6	-0.18400106
27	0xbe0ae729	-0.13564743
28	0x3c5266dd	0.012841907
29	0x3e8f544e	0.27994007
30	0xbdb6c36e	-0.08923994
31	0x3e8c359e	0.27384657
32	0x3d8df2cf	0.06931078
33	0xbdec1076	-0.11526577
34	0xbe1bd575	-0.15218146
35	0xbd5ff5de	-0.054677837
36	0x3de754c6	0.11295466
37	0x3c8619c9	0.016369717
38	0x3d035241	0.032060865
39	0x3d8838d0	0.06651461
40	0xbcf5c39d	-0.030000502
41	0xbe469bc1	-0.19395353
42	0xbea62ddd	-0.32456866
43	0xbe6ce936	-0.23135838
44	0x3eb34493	0.35013255
45	0xbdccb019	-0.099945255
46	0x3d8f7532	0.07004775
47	0x3e61ca21	0.22049762
48	0x3e3e8a83	0.18607526
49	0x3d91725b	0.0710189
50	0x3e3a7b69	0.1821114
51	0x3e0ca0a1	0.1373315
52	0x3ea5d925	0.3239223
53	0xbdb39a80	-0.08769703
54	0xbcf5e21d	-0.030015046
55	0xbdb956e3	-0.090497755
56	0xbe191b2f	-0.14951776
57	0x3d5c7cb8	0.05382988
58	0xbe0d3d22	-0.13792852
59	0x3da7b3df	0.081886046
60	0x3caa7716	0.020808738
61	0x3ed0c21e	0.407731
62	0xbdf0ae60	-0.117520094
63	0x3dc2ead1	0.09517444
64	0xbdd9d9ed	-0.10637269
65	0xbe5bd703	-0.21468739
66	0x3e6533da	0.22383061
67	0x3e8b87f6	0.27252167
68	0xbdffa511	-0.12482656
69	0x3ddefdb0	0.10888231
70	0xbd995615	-0.07487122
71	0x3d4df7b5	0.05028506
72	0x3e5ce274	0.2157076
73	0xbe7b7de2	-0.24559739
74	0x3ee55b91	0.44796422
75	0x3e074d43	0.13213067
76	0xbd6fbb01	-0.05852795
77	0x3e200aa9	0.15629067
78	0xbd1652a9	-0.036699925
79	0xbe07203f	-0.13195895
80	0xbe44f8ee	-0.19235584
81	0x3e70062f	0.23439859
82	0x3e9ef161	0.31043532
83	0xbea321a4	-0.31861603
84	0xbd4c3f28	-0.049864918
85	0xbe8097f5	-0.25115934
86	0x3d0e120e	0.034685187
87	0x3dfa90ea	0.122346714
88	0x3d33840c	0.0438271
89	0x3e3226b3	0.17397575
90	0xbe49e3ca	-0.19715801
91	0xbd8730e6	-0.066011235
92	0x3e4e18ef	0.20126699
93	0x3e6d3261	0.2316375
94	0xbe6a1136	-0.22858128
95	0x3e31f85e	0.17379901
96	0x3bc35968	0.005961586
97	0xbe1cb215	-0.15302308
98	0xbe3c7a0f	-0.18405937
99	0xbc902c0c	-0.017599128
100	0xbc3549be	-0.011064945
101	0xbd2efd05	-0.042721767
102	0xbdbc18fa	-0.091844514
103	0x3db85542	0.09000637
104	0xbe433d61	-0.19066383
105	0xbe7e5680	-0.24837685
106	0xbe9e5c92	-0.3093
107	0xbe298edc	-0.16558403
108	0x3dde776a	0.1086262
109	0xbe2096f1	-0.1568258
110	0xbe583a2b	-0.2111594
111	0x3dfd8dd4	0.12380567
112	0xbda254e0	-0.07926345
113	0x3e5bc201	0.21460725
114	0x3dc1703c	0.09445235
115	0x3e067ef2	0.13134363
116	0x3dbce2f1	0.09222973
117	0xbe172d97	-0.14763485
118	0x3ee9a01d	0.4562997
119	0x3e1af374	0.15131932
120	0xbdb61300	-0.08890343
121	0x3e870795	0.26372972
122	0xbdac542c	-0.08414492
123	0xbd861c5d	-0.065483786
124	0x3e78ea11	0.24308039
125	0x3ec28a22	0.37996012
126	0xbdc7ba0e	-0.09752284
127	0x3dd3490e	0.103166685
128	0xbcb05d28	-0.021528795
129	0x3ea7d15e	0.32776922
130	0x3c16c29a	0.00920167
131	0xbd1a5fe0	-0.03768909
132	0x3e4899c8	0.19589913
133	0xbe3a9589	-0.18221106
134	0x3e02ca6a	0.12772527
135	0x3e245720	0.1604886
136	0x3dc7b9fa	0.09752269
137	0x3d2cb219	0.042162035
138	0xbdc0e6b5	-0.09419004
139	0xbe8d1281	-0.2755318
140	0x3e697c25	0.22801264
141	0x3c41f88f	0.011839046
142	0x3e26cc64	0.16288906
143	0x3e951166	0.29114836
144	0x3d676241	0.056490187
145	0xbd9918d8	-0.07475442
146	0xbea19b5a	-0.31563836
147	0x3e386339	0.180066
148	0x3e153e13	0.1457446
149	0x3e5d4de6	0.21611747
150	0x3d57223e	0.05252289
151	0xbd3a503d	-0.045486677
152	0xbd97d4c5	-0.074136294
153	0xbe8e8cec	-0.2784189
154	0x3ed33001	0.41247562
155	0x3eafc666	0.34331053
156	0x3d23088b	0.03980307
157	0xbeb3c0b5	-0.3510796
158	0x3dfdcdc4	0.12392762
159	0xbe1c7976	-0.15280709
160	0x3e445c53	0.19175844
161	0x3cb5038f	0.022096423
162	0x3e3f087e	0.18655583
163	0xbe3c614d	-0.18396492
164	0xbcf93b5f	-0.030423818
165	0xbd18e802	-0.037330635
166	0xbe368a26	-0.17826137
167	0x3c49f653	0.012326795
168	0x3ce79674	0.028269984
169	0x3e27d9e1	0.16391708
170	0x3e20c5bd	0.15700431
171	0x3db9a3be	0.090644345
172	0xbe15ee85	-0.14641769
173	0x3e83e93f	0.2576389
174	0x3e6c33f8	0.230667
175	0xbd04f646	-0.032461427
176	0xbe6d83bf	-0.23194788
177	0xbd00ff29	-0.03149334
178	0xbddf8682	-0.10914327
179	0xbb7c2ffc	-0.003848075
180	0xbebd001c	-0.36914146
181	0x3e82655d	0.2546796
182	0x3e6cefc9	0.23138346
183	0xbe1b272d	-0.15151663
184	0x3e00caae	0.12577316
185	0xbe64df2c	-0.22350758
186	0x3da01113	0.07815757
187	0xbcdc7725	-0.026912281
188	0x3a808bb4	0.000980726
189	0xbde8c10d	-0.113649465
190	0x3bb9e705	0.0056732916
191	0xbe2555b8	-0.1614598
192	0xbe0a64b4	-0.13514978
193	0x3e3c9f97	0.18420254
194	0xbe5abe90	-0.21361756
195	0xbe836e0b	-0.25669894
196	0x3e51de62	0.20494989
197	0xbdefcff3	-0.11709585
198	0x3ea5f1ab	0.3241094
199	0x3e48c15d	0.19605012
200	0xbe32797e	-0.17429158
201	0x3e4150e1	0.18878509
202	0xbd2c8794	-0.042121485
203	0xbe0d1b00	-0.13779831
204	0x3e1b673a	0.15176097
205	0xbe5c7995	-0.21530755
206	0x3e066c3b	0.13127224
207	0x3e156f74	0.14593297
208	0x3e4397a2	0.19100812
209	0xbcdea7d9	-0.027179645
210	0x3c848fbf	0.016181825
211	0x3e0a42a1	0.1350198
212	0x3d76c2cc	0.060244367
213	0x3e4225c8	0.18959725
214	0xbdb73fd3	-0.089477204
215	0xbca9a4b8	-0.020708427
216	0xbd9d62e9	-0.07684881
217	0xbe3338ab	-0.17502086
218	0x3ebd1ca8	0.36935925
219	0x3e8b530f	0.27211806
220	0xbd5cd868	-0.05391732
221	0xbea1c69a	-0.31596833
222	0x3dfdd1be	0.12393521
223	0xbd8c77e9	-0.068588085
224	0xbdb55b35	-0.08855287
225	0x3ec42421	0.38308814
226	0x3e2c8c7b	0.16850464
227	0x3e4a212f	0.19739221
228	0x3e2caccd	0.16862793
229	0xbde000d4	-0.10937658
230	0xbe002ceb	-0.12517135
231	0x3bcf057a	0.0063177915
232	0x3df4183f	0.11918687
233	0x3e630258	0.22168863
234	0x3ea48b64	0.32137597
235	0xbc0f9eaf	-0.00876586
236	0xbe3c0b2f	-0.18363641
237	0x3c23a376	0.009987703
238	0x3d56d598	0.052449793
239	0xbdfc5ed9	-0.12322778
240	0xbd958fa2	-0.073027864
241	0xbe057143	-0.13031487
242	0x3e3b698d	0.18301983
243	0xbdca9962	-0.09892537
244	0xbd6f5bbd	-0.058437098
245	0x3de0ee6d	0.10982976
246	0xbbb17175	-0.0054151365
247	0xbe0b2f86	-0.13592348
248	0x3e17ac81	0.14811899
249	0xbd017740	-0.031607866
250	0x3e1ddd3a	0.15416422
251	0xbe21e8c3	-0.15811448
252	0xbe8a4e7f	-0.27013013
253	0xbe8a6c8b	-0.27035937
254	0x3e830c5c	0.25595367
255	0xbce7bebd	-0.028289193

sequential/dense_1/MatMul f4 [1, 64]
0	0x3ef07cf1	0.46970323
1	0x3f0d7c65	0.55267936
2	0xbee9f4df	-0.45694634
3	0xbf111a0c	-0.5668037
4	0xbef828c0	-0.4846859
5	0xbc088c41	-0.00833422
6	0x3eb55601	0.35417178
7	0x3ee92940	0.45539284
8	0xbf1147ee	-0.5675038
9	0xbf1e5adb	-0.61857384
10	0xbea6b7db	-0.32562146
11	0x3f1cee05	0.6130069
12	0x3efce737	0.49395153
13	0xbef478ff	-0.47748563
14	0x3f09da1d	0.5384844
15	0x3f12ecc2	0.57392514
16	0x3e67b580	0.2262783
17	0x3e070d57	0.13188682
18	0x3e1ec7ba	0.15505877
19	0x3f090a23	0.5353109
20	0x3f1fead4	0.62467694
21	0xbefdd4f0	-0.4957652
22	0xbf03d43b	-0.51495713
23	0xbed482da	-0.41506082
24	0x3ebd9e61	0.37034896
25	0xbe22be18	-0.15892828
26	0x3edba606	0.42900103
27	0x3f1b464a	0.6065413
28	0x3ebab1ad	0.3646368
29	0x3eaa2e69	0.33238533
30	0x3e4b65e5	0.19863088
31	0xbf247621	-0.6424275
32	0x3f16e56a	0.5894381
33	0xbe7bbfff	-0.2458496
34	0xbeaa7bc5	-0.33297554
35	0xbed271a7	-0.41102335
36	0xbdf60c1e	-0.1201403
37	0xbed4e4ac	-0.41580713
38	0xbf3a3bbf	-0.72747415
39	0xbe3c6afd	-0.18400188
40	0x3f11c6d4	0.5694401
41	0xbefc28b5	-0.49249807
42	0xbc8b2c76	-0.016988974
43	0xbe62be45	-0.22142895
44	0x3f100af8	0.56266737
45	0xbec25cd0	-0.37961435
46	0xbf00fbc4	-0.50384164
47	0x3f0df359	0.55449444
48	0xbf029443	-0.5100748
49	0x3ec4d286	0.38441867
50	0xbf01e09c	-0.5073335
51	0xbf0e9cd3	-0.55708045
52	0x3f22095e	0.63295543
53	0xbef06853	-0.46954593
54	0xbea91d3f	-0.33030125
55	0x3ef673be	0.4813518
56	0xbf0be85e	-0.5465144
57	0xbe719495	-0.23591836
58	0x3ee3cea9	0.44493607
59	0xbf11aec8	-0.5690732
60	0xbf01ce5f	-0.5070552
61	0x3ef42413	0.47683772
62	0x3edfec42	0.43734938
63	0x3f0b7dce	0.5448884
